…
Training Output Directory: /home/25543350/autoencoder1/models/20241018_213405/training_results
Feature Directory: /home/25543350/autoencoder1/features/20241011_163941

============================================================

Starting model training using train_model.py

=== Chains ===

Number of test chains: 2169

Number of training chains: 19521

Total Chains: 21690



=== Dataset Sizes ===

Original dataset size (unbalanced): 4523076

Number of training residues: 3618460

Number of validation residues: 904616

Total residues: 4523076




=== Model Architecture ===

Autoencoder(
  (encoder): Sequential(
    (0): Linear(in_features=180, out_features=148, bias=True)
    (1): BatchNorm1d(148, eps=1e-05, momentum=0.1, affine=True, track_running_stats=True)
    (2): LeakyReLU(negative_slope=0.01)
    (3): Dropout(p=0.01, inplace=False)
    (4): Linear(in_features=148, out_features=116, bias=True)
    (5): BatchNorm1d(116, eps=1e-05, momentum=0.1, affine=True, track_running_stats=True)
    (6): LeakyReLU(negative_slope=0.01)
    (7): Dropout(p=0.01, inplace=False)
    (8): Linear(in_features=116, out_features=84, bias=True)
  )
  (decoder): Sequential(
    (0): Linear(in_features=84, out_features=116, bias=True)
    (1): BatchNorm1d(116, eps=1e-05, momentum=0.1, affine=True, track_running_stats=True)
    (2): LeakyReLU(negative_slope=0.01)
    (3): Dropout(p=0.01, inplace=False)
    (4): Linear(in_features=116, out_features=148, bias=True)
    (5): BatchNorm1d(148, eps=1e-05, momentum=0.1, affine=True, track_running_stats=True)
    (6): LeakyReLU(negative_slope=0.01)
    (7): Dropout(p=0.01, inplace=False)
    (8): Linear(in_features=148, out_features=180, bias=True)
  )
)


=== Model Parameters ===

input_dim: 180

Layers: [148, 116]

Latent Dimension: 84

Dropout Rate: 0.01

Batch Size: 64

Learning Rate: 0.001

Epochs: 50

Device: cpu

Balanced Sampling: False

Seed: 42

Negative Slope: 0.01

Save Validation Features: True

Train-Validation Split: 0.8



=== Optimizer ===

Adam (
Parameter Group 0
    amsgrad: False
…
