…
Submitted by: 25543350
Training Output Directory: /home/25543350/autoencoder1/models/20241018_124138/training_results
Feature Directory: /home/25543350/autoencoder1/features/example_features

============================================================

Starting model training using train_model.py

=== Chains ===

Number of test chains: 2

Number of training chains: 5

Total Chains: 7



=== Dataset Sizes ===

Original dataset size (unbalanced): 771

Number of training residues: 616

Number of validation residues: 155

Total residues: 771




=== Model Architecture ===

Autoencoder(
  (encoder): Sequential(
    (0): Linear(in_features=180, out_features=128, bias=True)
    (1): BatchNorm1d(128, eps=1e-05, momentum=0.1, affine=True, track_running_stats=True)
    (2): LeakyReLU(negative_slope=0.01)
    (3): Dropout(p=0.01, inplace=False)
    (4): Linear(in_features=128, out_features=96, bias=True)
    (5): BatchNorm1d(96, eps=1e-05, momentum=0.1, affine=True, track_running_stats=True)
    (6): LeakyReLU(negative_slope=0.01)
    (7): Dropout(p=0.01, inplace=False)
    (8): Linear(in_features=96, out_features=64, bias=True)
  )
  (decoder): Sequential(
    (0): Linear(in_features=64, out_features=96, bias=True)
    (1): BatchNorm1d(96, eps=1e-05, momentum=0.1, affine=True, track_running_stats=True)
    (2): LeakyReLU(negative_slope=0.01)
    (3): Dropout(p=0.01, inplace=False)
    (4): Linear(in_features=96, out_features=128, bias=True)
    (5): BatchNorm1d(128, eps=1e-05, momentum=0.1, affine=True, track_running_stats=True)
    (6): LeakyReLU(negative_slope=0.01)
    (7): Dropout(p=0.01, inplace=False)
    (8): Linear(in_features=128, out_features=180, bias=True)
  )
)


=== Model Parameters ===

input_dim: 180

Layers: [128, 96]

Latent Dimension: 64

Dropout Rate: 0.01

Batch Size: 64

Learning Rate: 0.001

Epochs: 3

Device: cpu

Balanced Sampling: False

Seed: 42

Negative Slope: 0.01

Save Validation Features: True

Train-Validation Split: 0.8



=== Optimizer ===

Adam (
Parameter Group 0
    amsgrad: False
…
